data.pth (torch, 5207 bytes, 6 tensors)

l1.weight f4 [8, 57]
000000 00 cc fc bb c6 7a e6 3d a4 41 5a bd e6 ca 01 3e
       -0.0077147484 0.11253886 -0.053285256 0.12675056
000010 68 41 95 3c 60 51 11 bd fc cf 50 3d 6e f3 ca 3d
       0.018219665 -0.035477996 0.0509796 0.09909712
000020 58 8e 55 3d 34 6d 07 3e 38 dc 89 3c 96 fc c1 bd
       0.052137703 0.13225251 0.016828641 -0.09472005
000030 2c e1 f1 3d 64 ca f3 bd 80 51 00 3d 7c 6d b4 bc
       0.11810526 -0.11903837 0.031327724 -0.022024862
000040 10 9f 33 bd 82 66 00 3e 20 fc ca bd 94 39 fd 3d
       -0.043852866 0.12539104 -0.0991137 0.12364498
000050 da 5a a4 3d 94 7c ae bd dc 43 bd 3d 6a 8d df 3d
       0.08025141 -0.08519855 0.09241459 0.109156445
000060 05 f7 21 be 78 cc 0a 3d d0 bd 60 3c 38 a7 d9 3d
       -0.15816887 0.033886403 0.01371713 0.106275976
000070 03 51 b1 3d ed 03 b6 3d 3f 76 ad bd 22 e5 a7 3d
       0.0865803 0.088874675 -0.08469819 0.081980005
000080 09 e4 03 be 80 53 99 bd 40 3d 33 3b 44 f1 ba bd
       -0.12879957 -0.074866295 0.002734974 -0.09128049
000090 f0 01 ad 3d 04 d6 e6 bc 1e 61 a6 3d c0 1e bb 3c
       0.08447635 -0.028178222 0.081239924 0.022841811
0000a0 78 89 b7 3c 0a 6a 17 bd d8 00 e4 bd 40 7a f0 bc
       0.022404417 -0.03696636 -0.111329734 -0.029355168
0000b0 d9 50 b3 bd 09 6d ec bd 5e e0 6f bd 57 d9 e6 3d
       -0.08755655 -0.11544234 -0.058563583 0.11271923
0000c0 05 f9 fe bd 0b f6 a9 3d 2d 12 65 bd f0 5f fe 3d
       -0.124498405 0.08298882 -0.055925537 0.124206424
0000d0 d4 11 8d bd dd 56 be 3d ce 17 11 bd b5 25 72 bd
       -0.06888166 0.092939116 -0.035423093 -0.05911799
0000e0 74 8f f9 3c f3 41 0a bc a8 8d 04 3d f8 44 2a bd
       0.030463912 -0.008438575 0.032361656 -0.04156968
0000f0 c0 b2 de 3b ee ea b3 bd de 4e ad 3d 34 a3 c0 bd
       0.006796211 -0.08785044 0.08462308 -0.094061285
000100 1a 99 22 bd 80 d8 6a 3d 36 4f aa bd 8d 5d 04 be
       -0.03969679 0.057335377 -0.083158895 -0.12926312
000110 20 08 f7 3c 10 0b 96 bd 78 66 96 bd 5e d1 9c bd
       0.030155241 -0.07326329 -0.07343763 -0.07657121
000120 cd bb e7 bd ca 9c 03 bd f0 d3 f8 3c 8a 56 ee 3d
       -0.11315117 -0.032131948 0.030374497 0.116376
000130 94 e1 ab 3d de b9 e2 3d 7c 8e 02 be 65 ec bd bd
       0.08392635 0.110706076 -0.12749666 -0.09273604
000140 9d d0 d8 3d bf 9b 04 bf 90 f2 81 3d b6 a5 7f 3e
       0.10586665 -0.5180015 0.06345093 0.24965557
000150 20 91 bc bd b1 60 ca be 90 0d 03 bf cd 90 d0 bd
       -0.09207368 -0.39526895 -0.5119257 -0.101838686
000160 30 4b 86 3c e3 14 09 3f e8 cf 32 bd 10 2a 96 3c
       0.016393274 0.53547496 -0.043655306 0.018330604
000170 a3 30 fb 3e 08 78 1e 3f 51 a8 03 be 00 4b 2d 3c
       0.49060544 0.61901903 -0.12857176 0.010576963
000180 41 35 26 3e 90 58 f7 bb 34 ef bc 3d 56 8a 86 3f
       0.16231252 -0.0075483993 0.09225312 1.0510967
000190 3c 7a e5 3e 05 23 0a bd c1 eb 08 3e 91 ce d3 3e
       0.4481982 -0.033724803 0.13371183 0.41368535
0001a0 3d 23 33 3f c6 33 12 bd 4b af 99 be 0b 0c f8 3e
       0.69975644 -0.035693906 -0.3001655 0.48446688
0001b0 da 1e a5 3d 08 4d 91 bd 7c 63 a6 bb 76 82 12 3f
       0.08062525 -0.07094771 -0.0050777774 0.5723032
0001c0 59 a4 ed be b0 f8 3a 3f e0 da e2 3b ea fb f0 bd
       -0.4641445 0.73035717 0.0069230646 -0.11766799
0001d0 30 40 f6 3c 36 a5 93 3d 66 d0 06 bd bd 59 d2 bd
       0.030059904 0.07209246 -0.032913588 -0.102710225
0001e0 00 ce fa 3b 9e 04 32 bd a5 fb 93 bd 93 17 c7 bd
       0.0076539516 -0.043461435 -0.07225732 -0.09721293
0001f0 c0 ed 49 bd a8 4a 00 be 38 f9 dd bc f8 f3 e9 3c
       -0.049299 -0.12528479 -0.027096376 0.028558716
000200 a8 2e 3e 3d 10 08 ef 3d e6 92 7f bd c8 33 00 be
       0.046431214 0.1167146 -0.062395953 -0.12519753
000210 8c 01 ed bd ee c2 b2 bd 86 7a d5 3d 6a 73 ee 3d
       -0.11572561 -0.08728586 0.1042376 0.11643107
000220 68 8e a9 3d fc d4 cb bd 20 1c e2 3c 58 ea 5c bc
       0.08279115 -0.09952733 0.027601302 -0.013483606
000230 04 bb 91 bd 08 b0 ec 3c a8 8f 69 bd 00 4e 7f ba
       -0.071157485 0.028892532 -0.057021767 -0.0009739101
000240 80 fd eb bb 02 dd 0c bd 9c 1f c3 bd 60 19 a7 3b
       -0.0072018504 -0.034390457 -0.095275134 0.0050994605
000250 58 1b cf bc 9c d2 f2 3d d2 fc a4 3d a7 84 83 bd
       -0.025281593 0.11856577 0.08056034 -0.06421786
000260 1e 34 cf 3d e0 ed 27 3d 10 a6 8b 3d f0 50 2f bd
       0.101173624 0.04099834 0.06818783 -0.042801797
000270 50 c3 cd bd f5 97 03 be b0 36 51 3d 80 63 bc bb
       -0.100470185 -0.12850936 0.051077545 -0.005749166
000280 74 54 39 3d 08 a3 46 3d b0 b8 f9 bc ae 34 69 bd
       0.045246556 0.048495322 -0.030483574 -0.056935005
000290 6a 93 d4 bd fc 65 5a bd 22 3a dc 3d e2 a3 86 bd
       -0.103796795 -0.053319916 0.107532755 -0.06574227
0002a0 90 e1 ce 3c ac 20 92 bc fd 79 bd bd c1 e7 d2 3e
       0.025254041 -0.017837845 -0.09251783 0.4119244
0002b0 80 f6 1e 3d 20 fd 98 3d 30 39 54 bd c0 97 30 3c
       0.0388093 0.07470155 -0.05181235 0.0107783675
0002c0 02 85 bc bd 58 b3 06 bc 10 10 22 3c b4 b5 26 3d
       -0.09205057 -0.00822147 0.009891525 0.04070063
0002d0 37 f7 e6 bd 7e 82 ea 3d 38 89 c2 bc b2 3c ff bd
       -0.11277621 0.11450671 -0.023747072 -0.124627486
0002e0 12 72 aa bd fc 6c 2e bd 38 2a c7 3d 2a 57 0a bd
       -0.083225384 -0.042584404 0.097248495 -0.033774532
0002f0 8c b6 ba 3d e4 80 92 3d 8c 03 7e bd 14 b3 7d 3d
       0.09116849 0.0715349 -0.0620151 0.06193836
000300 72 3b 9b 3d 25 33 bb bd ed 4e 11 3d 36 87 b8 3e
       0.07579698 -0.091406144 0.03547566 0.36040658
000310 60 81 db 3d 8a dd ad 3e 80 d7 d6 ba 82 10 4c 3e
       0.10718036 0.33958083 -0.0016391128 0.19928172
000320 2a 37 80 3e 74 58 2c be 84 51 40 3d f2 e6 b8 3e
       0.25042087 -0.16830617 0.04695274 0.36113697
000330 3b 95 be bd 1c 80 38 3d 33 56 fb 3e 00 55 15 3f
       -0.09305807 0.04504405 0.49089202 0.58332825
000340 20 64 c9 bc bc 51 26 3d c8 a0 d4 be f2 e8 d3 3d
       -0.024583876 0.04060529 -0.41528916 0.10347165
000350 35 09 2e be de da b7 be 2f 65 f8 3e 27 a5 db 3e
       -0.169957 -0.3590917 0.48514697 0.4289944
000360 09 d1 4e be 82 a9 dd 3e 8f e1 25 3f da 0f bb bd
       -0.20196928 0.43293387 0.647973 -0.09133883
000370 82 da c9 3e bc 82 53 3f ce 7d 4e bd 95 23 a2 bd
       0.3942452 0.8262136 -0.050412945 -0.07916943
000380 4a f5 d4 3e 07 8c 08 3f a0 83 c1 3e ad dc 2a bc
       0.4159339 0.53338665 0.37795734 -0.01042859
000390 6c 8b 90 be 69 9e f2 bd 62 4f 69 bd f1 83 80 bd
       -0.2823137 -0.118466206 -0.05696047 -0.06275166
0003a0 de 8e 37 bd 78 e6 fc bd 0c 54 04 3e 24 9f 95 3d
       -0.044813983 -0.12348646 0.12922686 0.07305744
0003b0 14 43 b6 3d 94 7c 11 bd 30 95 09 bd bc 65 ea 3d
       0.08899513 -0.035519198 -0.033589542 0.114451855
0003c0 5f 2b cc bd 00 9b c9 3c d4 48 18 bd 30 07 07 3d
       -0.0996921 0.024610043 -0.03717883 0.03296584
0003d0 38 af 02 3d d4 58 98 bd b2 17 e9 bd 5e 76 80 bd
       0.031905383 -0.074388176 -0.11381473 -0.06272577
0003e0 4a 33 e9 bd d0 91 bd 3d 80 95 79 bb 32 15 ad 3d
       -0.11386736 0.09256327 -0.0038083494 0.08451308
0003f0 54 29 71 3e 6f fa 00 be 57 88 07 3f a0 94 cf 3b
       0.23550922 -0.12595533 0.52942413 0.006334856

l1.bias f4 [8]
000000 54 1f 14 be 26 de 2d 3f 4c 4c c2 bc de 4c cd 3e
       -0.14465076 0.67917097 -0.023718022 0.40097708
000010 6b 03 92 3e 14 b8 aa 3e bb 2f d5 3e 6c 24 a2 3e
       0.28518233 0.33343565 0.41637978 0.31668413

l2.weight f4 [8, 8]
000000 72 f2 42 3e 6e f6 63 3f f8 8e c6 3d 12 7c 2b 3f
       0.19037798 0.89047897 0.09695238 0.6698619
000010 ae ae cf bd 73 3b 19 bf eb 42 25 3f 08 9a 64 bf
       -0.101407394 -0.5985634 0.64555234 -0.89297533
000020 85 db 89 3e 5c af 3e 3f 26 0d db bd 33 3a 4b bf
       0.26925293 0.7448633 -0.10695867 -0.7938568
000030 49 cb ef 3e 64 60 79 3f 0a fa dd be ed 05 21 3e
       0.46834782 0.97412705 -0.43354827 0.15724917
000040 ce 27 1b 3e 68 f3 aa be ae 31 75 3e bc 35 bb bd
       0.15151903 -0.3338883 0.23944733 -0.091411084
000050 7c 6a 8c bd 9a 74 28 3e 85 d3 49 be 8a e6 52 3e
       -0.06856248 0.1645073 -0.19709595 0.20595756
000060 f3 bb 1e be 65 71 4a 3f 5a 8c 0f be 4f b0 38 3f
       -0.15501384 0.79079276 -0.14018384 0.72144026
000070 69 53 7c bf 48 45 82 be 6a 00 38 be f3 94 35 bd
       -0.98564774 -0.25443482 -0.17968908 -0.044331502
000080 7d d2 80 bd 37 d2 22 bc 3a 2e 8e be f8 eb 2b 3f
       -0.062901475 -0.009937814 -0.27769643 0.67156935
000090 98 f9 6a 3f 66 5d 3d bf ac 9b 20 3f 1b b9 54 3f
       0.917871 -0.7397064 0.62737536 0.8309495
0000a0 59 61 3a be 42 0a 9d be 56 e0 18 be 54 9d d9 3e
       -0.18201198 -0.3067189 -0.14929327 0.42502844
0000b0 d9 b3 86 3f 89 10 32 3f 2e 68 0b 3f 36 3e a8 3e
       1.0523635 0.6955648 0.5445584 0.32859963
0000c0 7d c4 a3 3e a4 46 85 bf d5 ab a8 3e 3e 31 cc 3e
       0.31985846 -1.0412183 0.32943597 0.3988132
0000d0 5e 9c 9e 3d 49 ea c4 bd b0 21 1a 3f 31 d1 13 3f
       0.077446684 -0.09614999 0.60207653 0.57741076
0000e0 8a f2 30 3e f5 9a 4b 3d 16 e8 3c 3e 67 75 6b 3f
       0.17280021 0.049708325 0.18447909 0.91976017
0000f0 39 23 7e bf a3 ec e9 be 82 50 29 bf fb a4 3a 3f
       -0.99272496 -0.45688352 -0.6613847 0.7290799

l2.bias f4 [8]
000000 1f bf d7 be 5b a6 1b 3f 4c cc d9 bd 3c bd 66 3f
       -0.42138 0.60800713 -0.1063467 0.901325
000010 ee db 52 3f 19 8c 3e be 06 4b 22 be ca 8d ca 3e
       0.82366836 -0.1860813 -0.15848932 0.395613

l3.weight f4 [7, 8]
000000 74 b1 51 3f 76 3e 49 bf 33 20 69 be 2d ba 97 be
       0.81911397 -0.7861093 -0.2276619 -0.29634228
000010 b7 98 ce 3e 4d b3 ae 3e 88 0e 0b bf 46 9e 5a bf
       0.40350887 0.3412117 -0.5431905 -0.85397756
000020 5d 55 21 bf 78 d3 84 3f 67 ce 73 be d4 2f 32 bf
       -0.6302088 1.0377035 -0.23809205 -0.6960423
000030 11 02 72 bf 86 f2 1b 3f 94 1b ee be cf 15 aa be
       -0.94534403 0.60916936 -0.46505415 -0.33219764
000040 78 ee 46 be 20 e5 8d 3f 06 67 31 3e 70 ac 79 3f
       -0.19426906 1.1085548 0.17324457 0.97528744
000050 cf e3 8a bf 0c 9d 76 bf 00 3a da 3d 21 72 09 bf
       -1.0850772 -0.96333385 0.10655594 -0.5368977
000060 29 21 33 bf d7 37 8d 3e 6a c6 42 3e ae 3c 2d bf
       -0.69972473 0.27581665 0.19021001 -0.67670715
000070 ad fc 1e 3f 45 35 09 3f fd 1a 82 bf 0f df b6 be
       0.621043 0.5359691 -1.0164486 -0.35717055
000080 a6 af 47 3f 85 99 fb be 80 9f 14 bc c3 f2 59 3f
       0.78002393 -0.49140564 -0.009071231 0.8513605
000090 ad 9d 09 bf 7c 08 14 bf 14 03 95 be 50 b8 74 3e
       -0.5375622 -0.57825446 -0.2910391 0.23898435
0000a0 a9 1f f0 be 1a ba 56 bf 5e 44 53 3e b0 f7 0d bf
       -0.46899155 -0.8387772 0.20631549 -0.55456066
0000b0 72 aa e2 3e 9d ca c1 3e d8 1a 42 3f 52 e3 15 bf
       0.44270664 0.37849894 0.7582221 -0.5854999
0000c0 30 5c 8a bf 20 98 ee bd dd b3 04 be d0 f1 66 3f
       -1.0809383 -0.11650109 -0.12959237 0.90212727
0000d0 09 49 87 3e 25 08 34 bf 68 c1 69 bd 80 d5 3d 3f
       0.2642291 -0.7032493 -0.057069212 0.741539

l3.bias f4 [7]
000000 89 2e 0a bf fe e4 a5 3d de f4 12 3f 6c 08 6f bc
       -0.53977257 0.081003174 0.5740489 -0.01458941
000010 16 57 fe be 76 4c ec be 7a 15 2f 3f
       -0.49675816 -0.46152085 0.68392146
