data.pth (torch, 5207 bytes, 6 tensors)

l1.weight f4 [8, 57]
-0.41166192 -0.05517447 0.013390943 0.1269297 0.017967254 0.05385822 -0.06355267 -0.090941675
-0.036222704 0.03535822 0.07500377 0.0023838878 0.09266956 -0.06370458 0.01984486 -0.0059258193
0.008816004 0.097359985 0.09248343 0.07413821 0.04635164 -0.097253025 -0.039323077 -0.21530265
0.20890845 0.1253503 0.53212804 -0.057169892 0.06288858 0.22271083 0.5364045 0.08603071
-0.20923464 0.07431641 -0.0518118 -0.12367324 -0.53349066 -0.099377 0.10951528 -0.14108242
0.06277549 -0.26023924 0.43112376 0.068746984 -0.43969148 -0.24092638 -0.09028262 -0.6021197
-0.077032775 0.0144291 -0.55451065 -0.11630433 0.090339944 0.3957841 0.3005228 0.20898066
0.46759933 0.08279669 -0.07684413 -0.11185539 0.072354645 0.02434805 -0.08517206 0.010185435
-0.04604204 0.082552224 0.11779484 0.128472 -0.10968228 -0.010703005 0.07221934 0.079973385
0.1100194 0.0045044273 0.09315586 0.05870898 -0.070498094 -0.049145587 0.07677221 0.050218955
0.0075267856 -0.047422685 -0.11797361 -0.038601033 -0.0496777 -0.028041415 -0.10735747 -0.11010659
-0.076990806 -0.10626848 -0.08897181 0.050073385 -0.058156714 -0.1055535 0.06664495 -0.06811569
0.08904508 -0.031581506 0.023068026 -0.10517697 -0.0090359 -0.09047766 -0.025798917 0.10200459
0.046601295 -0.099151805 -0.08101559 -0.027943648 0.11736773 -0.008067772 -0.021258071 0.13099965
0.111150965 -0.04306742 -0.22753838 0.10683301 -0.053008497 0.076156646 -0.021533556 -0.06788022
-0.09539336 -0.043875962 -0.12972465 -0.09061183 0.101047635 0.07879087 -0.028975695 -0.07355243
0.07216121 0.06515695 0.0637673 -0.09625982 -0.09299569 -0.067749746 0.11394404 -0.008414499
0.050743803 -0.33562967 -0.40402237 -0.05776535 0.4363889 -0.08819295 -0.37452307 -0.52083987
0.025090557 0.0049716234 0.32592824 -0.11608997 -0.057658046 0.54765296 0.5578486 0.019030482
0.061370745 -0.38525835 0.0073133856 -0.27295855 0.5017075 0.6393485 -0.2964762 -0.30184332
0.49052688 0.5703169 -0.004933566 -0.46428397 0.5672901 -0.03977198 -0.13159597 0.47201294
0.56049937 -0.44050822 0.3767607 -0.28876087 -0.1293783 0.0324609 -0.1315165 -0.101077944
0.102926716 0.010161728 -0.090144366 -0.0124242455 -0.11021229 0.058960557 0.09256689 0.066134825
-0.014434963 -0.06253979 0.053259358 0.015750289 -0.119020075 -0.093575075 -0.10524963 0.04529746
-0.025689453 -0.12692799 -0.19703585 0.25469735 0.012713909 0.5009449 -0.11608443 0.3094382
0.24416287 0.46213964 -0.075535595 0.34766945 0.0001796186 0.09116182 -0.17673105 -0.4362019
0.067229316 -0.029555313 0.32703596 0.034183726 0.4571216 0.1012426 -0.22853437 -0.4089543
0.41051432 -0.17165643 -0.23784445 -0.014991865 0.35486042 -0.27164364 -0.120013356 0.07119486
-0.15426315 0.59343874 0.33455166 0.51119125 -0.38905436 0.09219968 0.05830559 0.054368213
-0.036789216 -0.081891045 0.009746373 -0.049596317 0.06791754 0.024542183 -0.042648457 -0.0011180192
0.09355569 -0.07119219 -0.040484063 0.1149286 0.044835284 0.024676546 0.09167001 0.032058984
0.112984315 -0.049989782 0.066957325 0.35092667 0.276124 0.0005001575 0.6441181 -0.03534639
00000000: 5ac5 d2be a0fe 61bd b065 5b3c dcf9 013e
00000010: 1030 933c 709a 5c3d e727 82bd a13f babd
00000020: 425e 14bd c8d3 103d 949b 993d 003b 1c3b
00000030: 8ac9 bd3d 8c77 82bd b091 a23c 602d c2bb
00000040: 0071 103c ac64 c73d f467 bd3d c6d5 973d
00000050: 38db 3d3d 982c c7bd 3c11 21bd 4c78 5cbe
00000060: 19ec 553e d45b 003e 8b39 083f fa2a 6abd
00000070: bacb 803d 4f0e 643e ce51 093f de30 b03d
00000080: 9b41 56be 3433 983d 9c38 54bd 6548 fdbd
00000090: d892 08bf 2b86 cbbd 8c49 e03d e977 10be
000000a0: 7090 803d 143e 85be 41bc dc3e 38cb 8c3d
000000b0: 3e1f e1be 68b5 76be 18e6 b8bd 8424 1abf
000000c0: 5cc3 9dbd 0868 6c3c 69f4 0dbf f730 eebd
000000d0: 2604 b93d 37a4 ca3e 20de 993e 07ff 553e
000000e0: 2e69 ef3e 5091 a93d 7560 9dbd 7014 e5bd
000000f0: ac2e 943d 9075 c73c b06e aebd d0e0 263c
00000100: 9496 3cbd 2411 a93d 6c3e f13d 2a8e 033e
00000110: 1aa1 e0bd a85b 2fbc bce7 933d 16c9 a33d
00000120: da51 e13d e099 933b 80c8 be3d d478 703d
00000130: 4e61 90bd e24c 49bd c03a 9d3d 64b2 4d3d
00000140: 41a3 f63b 4a3e 42bd 269c f1bd 1e1c 1ebd
00000150: d87a 4bbd 1cb7 e5bc 3cde dbbd 907f e1bd
00000160: 5bad 9dbd 4aa3 d9bd da36 b6bd c019 4d3d
00000170: bc35 6ebd 6f2c d8bd 267d 883d 3d80 8bbd
00000180: 445d b63d 9c5b 01bd 28f9 bc3c 0667 d7bd
00000190: 500b 14bc 5a4c b9bd 4058 d3bc c8e7 d03d
000001a0: 00e1 3e3d 1a10 cbbd 80eb a5bd 14ea e4bc
000001b0: 7e5e f03d b02e 04bc 6825 aebc c624 063e
000001c0: 1ea3 e33d 7767 30bd d2ff 68be 44cb da3d
000001d0: 701f 59bd 04f8 9b3d 2467 b0bc c904 8bbd
000001e0: 985d c3bd 48b7 33bd 8ad6 04be b292 b9bd
000001f0: 10f2 ce3d 1c5d a13d 705e edbc a8a2 96bd
00000200: 42c9 933d 0271 853d 6e98 823d de23 c5bd
00000210: 8674 bebd 61c0 8abd 7e5b e93d f8dc 09bc
00000220: bcd8 4f3d a7d7 abbe 05dc cebe 5c9b 6cbd
00000230: 5e6e df3e 819e b4bd 7dc1 bfbe c355 05bf
00000240: b68a cd3c 00e9 a23b 11e0 a63e 94c0 edbd
00000250: d82a 6cbd fc32 0c3f 2acf 0e3f d0e5 9b3c
00000260: e45f 7b3d 9540 c5be 20a5 ef3b 39c1 8bbe
00000270: e76f 003f 58ac 233f bacb 97be 358b 9abe
00000280: 5726 fb3e 4a00 123f c0a9 a1bb a1b6 edbe
00000290: ed39 113f f2e7 22bd 18c1 06be aeab f13e
000002a0: e37c 0f3f 4b8a e1be c7e6 c03e 77d8 93be
000002b0: bf7b 04be b8f5 043d 43ac 06be f401 cfbd
000002c0: 3ecb d23d 607d 263c 9c9d b8bd 108f 4bbc
000002d0: fbb6 e1bd a080 713d b693 bd3d b271 873d
000002e0: a080 6cbc dd14 80bd 7c26 5a3d c006 813c
000002f0: ccc0 f3bd 4aa4 bfbd 1e8d d7bd d489 393d
00000300: b072 d2bc 69f9 01be c4c3 49be b167 823e
00000310: 004e 503c ed3d 003f acbd edbd af6e 9e3e
00000320: d505 7a3e 919d ec3e 68b2 9abd bb01 b23e
00000330: 0058 3c39 0cb3 ba3d fcf8 34be db55 dfbe
00000340: 86af 893d fc1d f2bc 4271 a73e 3c04 0c3d
00000350: d80b ea3e 4858 cf3d ea04 6abe 7562 d1be
00000360: ef2e d23e b4c6 2fbe 7f8d 73be 70a0 75bc
00000370: 44b0 b53e e014 8bbe 90c9 f5bd 9cce 913d
00000380: 29f7 1dbe 9aeb 173f 5b4a ab3e 6edd 023f
00000390: 2232 c7be 30d3 bc3d d8d1 6e3d 34b1 5e3d
000003a0: 4ab0 16bd 7eb6 a7bd 40af 1f3c 8225 4bbd
000003b0: 5a18 8b3d b00c c93c 26b0 2ebd 808a 92ba
000003c0: 209a bf3d 36cd 91bd 9ed2 25bd b05f eb3d
000003d0: 34a5 373d 7826 ca3c 7cbd bb3d 4850 033d
000003e0: 5264 e73d 16c2 4cbd ec20 893d a9ac b33e
000003f0: 2060 8d3e 001d 033a ece4 243f 60c7 10bd

l1.bias f4 [8]
0.5990121 0.014646403 0.59304476 0.3835461 0.21880497 0.4070028 0.39001992 0.4235067
00000000: db58 193f 77f7 6f3c c8d1 173f 2860 c43e
00000010: 690e 603e ac62 d03e b1b0 c73e dfd5 d83e

l2.weight f4 [8, 8]
-0.55560046 0.21000102 0.91421366 -0.9067292 -0.041088607 0.5099672 0.17922314 0.61354166
-0.3371483 -0.32626605 0.18401161 0.5862193 0.43844682 0.16221347 0.074700326 -0.8191914
-0.51396376 0.14233443 -0.883931 0.13800374 0.5085115 0.55651337 0.8776975 0.37516433
0.7735104 -0.15884487 0.23182555 0.66219443 0.4957041 -0.7847083 0.3067121 0.6066917
-0.27228191 -0.10953468 0.2521041 -0.19154465 0.008329352 -0.17857243 0.088263415 -0.08012985
-0.74578524 -0.19827774 0.27651167 0.5557144 0.63601696 0.24201824 0.45903364 -0.70717293
0.242006 0.3462134 0.47024205 0.4036969 0.5716274 0.91143423 -0.70831364 -0.3613933
0.6319655 0.23404673 0.3467368 0.57836443 -0.05010546 -0.78781015 0.60471994 0.7049785
00000000: d53b 0ebf 820a 573e e809 6a3f 681f 68bf
00000010: 874c 28bd 368d 023f 4586 373e 1111 1d3f
00000020: b49e acbe 580c a7be 8a6d 3c3e 7812 163f
00000030: 1a7c e03e 4a1b 263e 7cfc 983d 87b6 51bf
00000040: 2193 03bf 1ec0 113e 4d49 62bf da50 0d3e
00000050: cf2d 023f a977 0e3f c9b0 603f 8a15 c03e
00000060: c704 463f 3ba8 22be ad63 6d3e 9385 293f
00000070: eecc fd3e a5e2 48bf 5e09 9d3e 2650 1b3f
00000080: 8968 8bbe b853 e0bd ca13 813e 4824 44be
00000090: d677 083c b1db 36be 73c3 b43d 1e1b a4bd
000000a0: c8eb 3ebf 5209 4bbe f092 8d3e 4d43 0e3f
000000b0: 02d2 223f a1d3 773e 7506 eb3e 4909 35bf
000000c0: 6cd0 773e e242 b13e 91c3 f03e 5cb1 ce3e
000000d0: 2c56 123f c153 693f 0b54 35bf 8b08 b9be
000000e0: 7ec8 213f f2a9 6f3e 7c87 b13e b10f 143f
000000f0: 623b 4dbd edad 49bf edce 1a3f 7979 343f

l2.bias f4 [8]
0.7592655 0.15806445 0.44477504 0.24217479 -0.17092556 -0.37634796 -0.15484193 0.53008926
00000000: 395f 423f a6db 213e 8eb9 e33e abfc 773e
00000010: 1c07 2fbe aeb0 c0be e28e 1ebe eeb3 073f

l3.weight f4 [7, 8]
0.634284 -0.3350649 -0.70266354 -0.67993087 0.26722074 -0.8584151 0.880448 -0.84513
-0.7027736 0.72722584 0.6755864 -0.25125822 -0.16343363 0.79967403 -0.24990298 -0.7241456
-0.16155323 -0.38922456 -0.9680575 0.5982613 -0.11809968 -0.81895024 -0.7108907 0.6512541
-0.9017701 0.60004246 -0.6858842 0.14841978 0.034856535 -0.28082806 0.9153475 -0.112138346
0.13102591 0.7043927 -0.47274923 -0.5177794 -0.2492903 0.7819355 0.39232278 -1.1297815
-0.6969292 -0.4862426 0.6494087 0.438942 -0.29732412 -0.28760514 -0.34650186 -0.05477407
0.65208834 -0.27512437 0.8731768 -0.7379196 -0.18607295 -0.3515403 -0.7427747 -0.37854722
00000000: 7060 223f a08d abbe c2e1 33bf f30f 2ebf
00000010: 28d1 883e 18c1 5bbf 0a65 613f 715a 58bf
00000020: f8e8 33bf 792b 3a3f 3bf3 2c3f eba4 80be
00000030: 255b 27be 70b7 4c3f 91e6 7fbe 9b61 39bf
00000040: 366e 25be 7148 c7be 9ed2 77bf a727 193f
00000050: 3fde f1bd b9a6 51bf effc 35bf 97b8 263f
00000060: 68da 66bf 629c 193f 1b96 2fbf 5bfb 173e
00000070: bac5 0e3d b2c8 8fbe 3754 6a3f caa8 e5bd
00000080: a82b 063e 1453 343f 300c f2be 318d 04bf
00000090: f545 7fbe ed2c 483f 88de c83e ae9c 90bf
000000a0: f469 32bf caf4 f8be a63f 263f 01bd e03e
000000b0: de3a 98be fb40 93be b168 b1be c65a 60bd
000000c0: 43ef 263f 1add 8cbe 8488 5f3f 4de8 3cbf
000000d0: e889 3ebe 17fd b3be 7c26 3ebf f1d0 c1be

l3.bias f4 [7]
0.18705505 -0.446691 0.26823506 -0.07253731 -0.30238947 -0.7731478 0.3634654
00000000: 5c8b 3f3e afb4 e4be 1b56 893e 718e 94bd
00000010: cbd2 9abe 04ed 45bf 2318 ba3e
