data.pth (torch, 5015 bytes, 6 tensors)

l1.weight f4 [8, 54]
00000000: 7ea4 863f 570e 323f e8bb e43e 7f6f 44be
00000010: 2656 b6bd a20c 2e3f b172 e83e e278 193f
00000020: 43f6 323f 9aaf d13e 9efb 8abe 3455 3c3e
00000030: b054 923d 75b8 643d f48c db3e 13ab 8c3b
00000040: ce60 69be 9aaf 113f 027e b6be bb34 0abf
00000050: e557 533f 6c60 1bbf 6394 11bf 1e1c 98be
00000060: a93b 733e 7493 0cbe 8e63 a5be eb24 f13d
00000070: 764a 853d 17ae bdbe 0585 f63e 8030 683e
00000080: 8181 3f3f eb28 df3e d970 283f a7f0 643d
00000090: a269 a6bd fcde 193f e75e c03e c5d2 ac3e
000000a0: ef22 f43e 7018 02bf 1eb6 153e 60c3 533e
000000b0: 76d1 b43e 1114 043f 8ce5 c23f 9ffc 4d3f
000000c0: db22 47be 29d3 fbbe 48d5 543d 4291 c4be
000000d0: d7b0 ca3e 9c8b e53e 6cac 8bbe be5e 8b3e
000000e0: 799c 99be a906 b23e 0f92 d33e d2ea 4f3e
000000f0: 8e0b e5bd 9a47 043e 2e8f 09bf 4775 92bd
00000100: da7b de3e 2205 a9be 9afb ddbd c772 c3be
00000110: e777 9a3d 22fd 57bd 45c2 c93e d8e6 1a3e
00000120: 4cd1 8ebe 5873 e93e c23d 88be 25c4 ab3e
00000130: 7fad 073f f3ce 2e3f f076 4cbe aa29 c93e
00000140: f619 80be 8f14 b73d 0206 92be 5c4e 223e
00000150: e39a 3a3e e1ec c3be 3255 543d ac71 5abe
00000160: ecaf c13d 5a2a f33c 2081 98be 6c29 20bf
00000170: 31c8 15be 8569 1ebd e38e 613e ba91 a1bd
00000180: c66d 82be d299 153e 21b9 d1be 282b 103e
00000190: 34df 71bf e8a3 90be 1076 723e 8a93 c4be
000001a0: 5905 24be d386 97be 6430 ddbd fa74 ff3d
000001b0: f185 583e 8daa 5abe 40ae 8a3e 4b7e 3c3e
000001c0: 0ae5 753e 931b debe 5c34 673e d0a8 843e
000001d0: bcd7 f33e f1f7 883e 471b 543e fb34 053f
000001e0: d983 3d3e 3b1a 1d3f 310f e6bd 3d03 003f
000001f0: e970 c83e 9130 edbe acd9 adbd 9e7d cd3e
00000200: 58cf a5bd 1b83 df3e 6507 e03e 5c1e 173f
00000210: 3b6c 093f d110 ad3e d517 6cbe 8574 58be
00000220: e903 13be 9a8d c2be d031 04be 7c9a cf3e
00000230: 81d5 1abd 9e6d 993e 88ae 84be 899d ac3e
00000240: d8ff 74be a198 153f 6cf5 7b3e 788e 153d
00000250: 4302 8bbe fb0f 56be f941 d43e 9ed2 86bd
00000260: 3d6c e43e 2244 f7bd f66d ea3d c5c5 f63d
00000270: 64eb 553e 3111 66be 0e91 e83e c562 5dbe
00000280: f00f 673e bed1 833d a529 c23d 8916 87be
00000290: 98a1 603d d03a 893e 0196 ba3e d330 c5be
000002a0: 38df de3b 4bf3 34be db88 723e f0e0 87be
000002b0: 1824 c53e 91e5 233f 8bc0 823e f9ca 073f
000002c0: 5870 6abb 99d7 f93e 0e38 453e 28a5 dabe
000002d0: 9db2 373e 959f 153f e14e a33d 0018 253f
000002e0: 0dfd 2e3f 599e 433f 53fa ba3e cc44 213e
000002f0: 2ad6 2fbd 74e0 93be 58a9 babd 9d2b 10be
00000300: 18a2 8ebe 105c 013f d086 1e3f f613 db3d
00000310: d7e8 33be 5f65 eb3e ad31 ef3d b98f 1a3d
00000320: 6f4c 99bd 614f b5bd 19d9 eebd 3913 4a3e
00000330: 7d9c 0e3f 4360 1dbe 08de 1f3f 8466 f3bd
00000340: 6b36 a83d 1bf0 4b3d 5ea4 3f3e 78b5 03be
00000350: 6b13 c53e 8feb 883e d9fc 21bb 45c6 3b3b
00000360: 61cb 733e b16a 303d aa5c 493f cd91 dbbd
00000370: af9c 89bd a2bb fcbe 960d 403f aa89 353f
00000380: 4594 533f dc6c 363f 99cb 613e d462 0f3f
00000390: a724 713f 9ebf 0a3f b08d acbd c0af d53e
000003a0: f564 1b3e d0b4 f0be 9b00 d03e 7dfe 293e
000003b0: d22e 9f3e e59b 06be 3bbf 6fbe de6e 103e
000003c0: fe39 b83e c95a f1bd 9af0 053f 05d6 273d
000003d0: 2cfd a83e 662e e33d d739 00bf f505 2c3f
000003e0: 80ef 143f 1668 353f addb 8bbe 511a c23e
000003f0: 4037 b83e be0a 6e3f 1490 1a3f 8008 543f
1.0518949 0.6955313 0.4467461 -0.19183157 -0.0890315 0.67988026 0.45400003 0.5995008
0.69907016 0.40954286 -0.27145094 0.18391877 0.07145059 0.055839974 0.42880976 0.0042928546
-0.22790834 0.5690857 -0.3564301 -0.5398671 0.8255599 -0.60694003 -0.56867045 -0.29708952
0.23753227 -0.13728124 -0.32302517 0.1177462 0.06508343 -0.37046883 0.4814836 0.22674751
0.7480698 0.43585905 0.6579719 0.055893566 -0.081256166 0.6010587 0.37572405 0.33754554
0.47682902 -0.5081854 0.14620253 0.20679998 0.35316056 0.5159312 1.5226302 0.80463594
-0.1944689 -0.4918454 0.051961213 -0.38392073 0.39588043 0.44833076 -0.27279985 0.2722072
-0.30002192 0.34770706 0.4132237 0.2030442 -0.111838445 0.12917939 -0.537341 -0.07151275
0.43453866 -0.3301173 -0.10839005 -0.38173506 0.07542401 -0.05273164 0.39406028 0.15127122
-0.27894056 0.45595813 -0.26609617 0.33548084 0.5299911 0.6828453 -0.19967246 0.392896
-0.25019807 0.08939468 -0.2852021 0.15850204 0.18223147 -0.38266662 0.05183906 -0.21332425
0.094573826 0.02968328 -0.29786015 -0.62563205 -0.14627148 -0.03867485 0.22027163 -0.07889123
-0.25474375 0.14609459 -0.40961555 0.14078963 -0.94481206 -0.2825005 0.2367785 -0.38393813
-0.16017665 -0.2959505 -0.108002454 0.124734834 0.21144845 -0.21354122 0.27086067 0.18407552
0.24013153 -0.43380412 0.22578567 0.25910044 0.4762553 0.26751664 0.2071353 0.52033967
0.18507327 0.6136815 -0.11233366 0.5000494 0.39148644 -0.46326116 -0.08488783 0.401349
-0.08096188 0.43654713 0.43755642 0.590307 0.5368077 0.33801892 -0.23055966 -0.21138199
-0.1435696 -0.37998658 -0.12909627 0.4054755 -0.03780127 0.29966444 -0.25914407 0.3371394
-0.23925722 0.5843602 0.2460534 0.036512822 -0.27150163 -0.20904534 0.41456583 -0.06583141
0.4461383 -0.12073542 0.11446755 0.1204944 0.20890576 -0.22467496 0.45423168 -0.21619709
0.22564673 0.064364895 0.09480599 -0.2638438 0.054841608 0.26802683 0.3644257 -0.38513812
0.006801512 -0.17670934 0.23685019 -0.265388 0.385041 0.64022166 0.25537524 0.53044087
-0.0035772528 0.487973 0.19259664 -0.4270413 0.1793923 0.5844663 0.07974029 0.64489746
0.68354875 0.76413494 0.36519107 0.157489 -0.042928852 -0.28882182 -0.09114331 -0.14079137
-0.27858043 0.505311 0.6192446 0.106971666 -0.1756929 0.45975778 0.11679397 0.03773472
-0.07485282 -0.08853031 -0.11662502 0.19733895 0.5570753 -0.15368752 0.6244817 -0.11884788
0.082135044 0.04978953 0.18715045 -0.12862194 0.38491377 0.26742217 -0.002471736 0.0028652113
0.23808052 0.0430705 0.7865702 -0.10721169 -0.06719338 -0.49361902 0.7502073 0.70913184
0.82648116 0.71259856 0.22050323 0.56010175 0.9419655 0.54198635 -0.08425462 0.4173565
0.15175231 -0.4701295 0.40625462 0.16600986 0.3109041 -0.13145407 -0.23412792 0.14104792
0.35981745 -0.11784894 0.52320254 0.04097559 0.33005655 0.11092834 -0.50088257 0.6719659
0.5817795 0.7086195 -0.27316037 0.37910703 0.35979652 0.9298514 0.60376096 0.8282547

l1.bias f4 [8]
00000000: 4a79 6b3f 3237 523f ca06 0e3f f786 de3e
00000010: 3ce7 fc3e 054a 583f 81d7 333f e5d0 2d3f
0.9198195 0.8211547 0.5547911 0.43462345 0.49395168 0.84487945 0.7025071 0.6789687

l2.weight f4 [8, 8]
00000000: b6f6 f83f dd7e d33e 0f4e 10bf 0cdd 6dbf
00000010: 3de4 3f3e 2903 783f 11e1 ae3e b343 ac3c
00000020: a0bf 6ebc 5a60 44be 6a0f 4f3e 20be 28bd
00000030: 38fa 28be 416f a6be d945 44be 26c4 4d3e
00000040: a702 31bf 9d2e 713d 1e36 713e 0cda 533f
00000050: 496a a93f 7646 43bf 0e5c 783d 2046 c4be
00000060: cfa9 aebe 59fb 543f a3cd 4f3e 81a7 d83e
00000070: 4f4e 86be c1e0 893f 242f 8f3f d699 4a3f
00000080: 4cc6 e2be 590e 883f f5ed 753f 620f c73e
00000090: 0e63 3abe d215 a23f 19f3 a43f b95d 6c3f
000000a0: 896e 6b3f 833d c4bf bc13 853f 3061 613f
000000b0: 4054 e53e 3cb2 a23d 962b 4a3f 9765 00bf
000000c0: 1411 95bf 4e9a 7a3f 6194 523f 724a 203f
000000d0: 7d0e e8bd e2d5 923e 60c3 423e 9727 633f
000000e0: f3ea 03bf 4f66 ffbd a164 d63e a5f2 9b3f
000000f0: 3821 283f 2625 e8be 440e d2be 6795 85bf
1.945029 0.41307727 -0.5636911 -0.92915416 0.1873941 0.9687982 0.34156087 0.021028375
-0.014572054 -0.1917738 0.20220724 -0.041196942 -0.16501701 -0.32506755 -0.1916727 0.20094356
-0.6914467 0.058882345 0.235558 0.8275459 1.3235561 -0.7627939 0.060634665 -0.3833475
-0.3411393 0.83196026 0.20293288 0.42315295 -0.2623162 1.0771714 1.1186261 0.79140985
-0.44291914 1.0629379 0.9606622 0.38878924 -0.18201849 1.2662909 1.2886688 0.9233051
0.9196554 -1.5331272 1.0396647 0.8803892 0.4479084 0.07944152 0.78972757 -0.50155014
-1.1645837 0.978917 0.8225766 0.62613595 -0.113308884 0.28678805 0.19019842 0.88732284
-0.5153038 -0.12470686 0.4187365 1.2183424 0.6567569 -0.45340842 -0.4102651 -1.0436219

l2.bias f4 [8]
00000000: 5d98 f53e 9373 2bbe dafe e23e eb18 56be
00000010: 95c4 a8be af68 0fbf ae69 30be a885 3abe
0.47967806 -0.16743307 0.4433506 -0.20907943 -0.3296248 -0.5601911 -0.17227814 -0.18215048

l3.weight f4 [7, 8]
00000000: 5de5 dabf 1e67 1f3e 7537 25be 7a7b 503e
00000010: 4087 3e3d 4a5f 123f 8b69 c0bc f3b9 a8be
00000020: b719 943f 5844 503d f407 27be eca2 40bf
00000030: 79e2 e1bf 4a0b 08c0 04a3 4ebf be0a 9bbf
00000040: a801 c43e 7c97 093e 6599 cebf 46b9 393f
00000050: b240 4e3e 0d52 d9bf d5c0 9fbf 4e3a 7cbf
00000060: 1d7c b2bf b05f 4abd c016 6ebf 5340 153f
00000070: aff8 203f d0a7 28bf f35e 7b3f e525 91bf
00000080: a630 a7bf fff8 95be b409 6e3f 2f58 06bf
00000090: 6493 7fbf 814d 69be 9227 15bf a724 3e3f
000000a0: 3ee8 dbbe f511 1fbe 0f87 b2be a685 033e
000000b0: 53cc 2f3e eb12 b43e ac02 35bf e0e1 ddbf
000000c0: 23f3 fe3e 5170 913e 681a aebf abe8 81bf
000000d0: a663 a2bf 3146 263f 382a 01bf 051a 4bbf
-1.7101246 0.1556668 -0.16134436 0.20359603 0.046515703 0.5717665 -0.023487827 -0.32954368
1.1570348 0.050846428 -0.16311628 -0.752486 -1.7647239 -2.125689 -0.8071749 -1.2112653
0.38282514 0.13436693 -1.6140562 0.7254833 0.20141867 -1.6978165 -1.2480723 -0.98526466
-1.3944126 -0.04940766 -0.93003464 0.58301276 0.6287946 -0.6588106 0.98191756 -1.133969
-1.3061721 -0.2929153 0.92983556 -0.5247831 -0.99834275 -0.22783472 -0.58263505 0.7427468
-0.42950624 -0.15534194 -0.34868667 0.12843952 0.17167787 0.35170683 -0.707072 -1.7334557
0.49794874 0.28406003 -1.3601809 -1.014913 -1.268666 0.64950854 -0.50455046 -0.7933658

l3.bias f4 [7]
00000000: a142 26bf 41db 4e3f 4d39 babe 1f78 11be
00000010: e99c 223f 7b30 09bf 9d01 87bd
-0.6494542 0.80803305 -0.36371842 -0.14205979 0.63520676 -0.535896 -0.065921046
