echatbot/resources/data.pth (torch, 5015 bytes, 6 tensors)

l1.weight f4 [8, 54]
0	0xbdca66f0	-0.09882915
1	0x3eb53669	0.35393074
2	0x3ef51bd7	0.47872803
3	0x3ef92c1f	0.48666474
4	0x3ef29cbf	0.47385213
5	0xbd4f57af	-0.05062073
6	0x3f021f4b	0.50829
7	0x3ec1cca9	0.37851456
8	0x3e45cf28	0.19317305
9	0x3ec2bac8	0.38033128
10	0x3f11ff21	0.5702992
11	0xbea6ba8e	-0.32564205
12	0x3ea1ec17	0.31625435
13	0xbeedc785	-0.46441284
14	0x3e90025d	0.28126803
15	0xbed28f09	-0.41124752
16	0x3efe1e99	0.4963272
17	0x3d01f323	0.031726014
18	0x3eab40f0	0.3344798
19	0x3f15e30c	0.5854957
20	0xbe3d1e47	-0.18468581
21	0x3f0e696b	0.55629605
22	0x3f26a8c0	0.6510124
23	0x3ebe62dd	0.37184802
24	0x3dd97e01	0.106197365
25	0x3f11d679	0.56967884
26	0x3ed47afa	0.41500074
27	0x3ed72db2	0.4202705
28	0x3cddee7b	0.027091255
29	0x3edfc9fd	0.43708792
30	0xbd0d64f7	-0.034520116
31	0xbead6f50	-0.33873987
32	0x3d9d18ea	0.076707676
33	0x3efed6b5	0.49773183
34	0x3e92d209	0.2867587
35	0xbea0636a	-0.31325847
36	0x3e8a7c40	0.2704792
37	0x3e551a04	0.20810705
38	0x3eedb405	0.46426407
39	0x3ea079ab	0.31342825
40	0xbdc4d2e2	-0.09610535
41	0x3e965a9f	0.29366013
42	0xbea6eb9e	-0.32601637
43	0x3ea028ae	0.31281036
44	0xbdb96789	-0.09052951
45	0x3ec3e683	0.38261804
46	0xbef7d37d	-0.4840354
47	0x3cce7346	0.025201451
48	0x3f0a670e	0.540635
49	0x3e8cb0ff	0.27478787
50	0xbe61340a	-0.21992508
51	0x3e9de5f0	0.3083949
52	0x3effdd7b	0.49973664
53	0x3e7c3601	0.24629976
54	0x3f3a611f	0.72804445
55	0x3eae1da0	0.34006977
56	0xbefc81ff	-0.4931793
57	0x3df0d62e	0.117596015
58	0x3ddda27b	0.10822006
59	0xbf0666f1	-0.52500826
60	0xbe2d3529	-0.1691481
61	0xbf1c7315	-0.611131
62	0xbe88817b	-0.26661286
63	0xbefde698	-0.49589992
64	0x3e33a002	0.17541507
65	0xbd92bcb0	-0.071648955
66	0x3eb98bd5	0.36239496
67	0x3d61d8e0	0.05513847
68	0x3e6aa719	0.22915305
69	0xbe9bc2eb	-0.30422148
70	0x3e1bc46b	0.15211646
71	0xbf025c04	-0.50921655
72	0x3f182214	0.59427
73	0x3da0d254	0.07852617
74	0x3f17c7b2	0.59289086
75	0x3d3a75f2	0.045522638
76	0x3d79ba24	0.060968533
77	0xbe09e65d	-0.13466783
78	0xbeaaa5ad	-0.33329526
79	0xbd8c8a8f	-0.068623655
80	0x3f3e387e	0.7430495
81	0x3eb18e6e	0.34678978
82	0x3ef884fb	0.48538956
83	0x3e68dc81	0.22740366
84	0xbeb357fe	-0.3502807
85	0xbd7f8de7	-0.062391188
86	0x3e832e1b	0.25621113
87	0xbeea41e1	-0.45753387
88	0x3ee09993	0.43867168
89	0xbe021dd2	-0.12706688
90	0x3f1cb8f4	0.61219716
91	0xbe9bea92	-0.304524
92	0xbe0c7688	-0.13717091
93	0x3c9b91c3	0.018990403
94	0xbee45c02	-0.44601446
95	0x3f1d211c	0.61378646
96	0xbdc27679	-0.09495253
97	0x3ed305fa	0.41215497
98	0xbed3c74a	-0.41362983
99	0x3ed5a657	0.4172847
100	0x3f847f06	1.0351264
101	0x3f0e0730	0.5547972
102	0x3e8b93fc	0.2726134
103	0x3f5f78eb	0.8729388
104	0xbe2870e0	-0.16449308
105	0x3f0a4b16	0.5402082
106	0xbcef7153	-0.029228842
107	0x3f063e43	0.52438754
108	0xbdeb9e28	-0.11504775
109	0xbe217d48	-0.15770447
110	0x3edf2a48	0.43586946
111	0x3e647c43	0.22313027
112	0x3f048a3d	0.51773435
113	0x3f4c95d6	0.7991613
114	0x3eda343f	0.42617986
115	0x3ed2cb67	0.4117081
116	0x3ec2c745	0.38042656
117	0x3efc827b	0.493183
118	0x3ed67d5a	0.4189251
119	0x3e38d933	0.18051605
120	0x3e91a49f	0.28445908
121	0xbd9d9dbb	-0.076961
122	0xbe7a270c	-0.24428958
123	0xbe11b806	-0.14230356
124	0x3f00a080	0.50244904
125	0x3f417fa7	0.75585407
126	0xbe53e11a	-0.20691338
127	0x3ee7ca2b	0.4527143
128	0xbdd025d7	-0.101634674
129	0x3f03f87c	0.5155103
130	0x3ee59a14	0.44844115
131	0x3e4f6b8b	0.20255868
132	0x3ea25c57	0.31711075
133	0x3e8f3530	0.27970266
134	0xbee462ad	-0.44606534
135	0xbea16100	-0.31519318
136	0xbe83081e	-0.2559213
137	0xbea1f916	-0.3163535
138	0x3f1196f1	0.56870943
139	0x3d3824a2	0.04495681
140	0xbdc36d75	-0.09542362
141	0x3ef5a708	0.47978997
142	0xbe4f41f9	-0.2024001
143	0xbe106af8	-0.14103305
144	0xbd892946	-0.066973254
145	0x3ee5179b	0.44744572
146	0x3e7fc20d	0.24976368
147	0x3eacf7df	0.3378286
148	0x3f06cded	0.5265797
149	0xbeffb450	-0.49942255
150	0xbcfbe41e	-0.030748423
151	0xbc8567e1	-0.016284885
152	0x3e9a2132	0.3010345
153	0xbd3d2782	-0.046180256
154	0xbf0ed824	-0.55798554
155	0xbe9b361c	-0.3031472
156	0x3e50bc92	0.20384434
157	0xbf04aa04	-0.51821923
158	0xbc9fa9bd	-0.019490117
159	0xbeb9e1c0	-0.36305046
160	0x3ebd7a37	0.37007305
161	0x3e2b7d0b	0.16746919
162	0xbe2300a5	-0.15918215
163	0xbea9370a	-0.33049804
164	0x3f1d027d	0.6133192
165	0x3ec1dbe6	0.37863082
166	0x3eef3713	0.46721706
167	0x3f34af1d	0.705797
168	0x3eacd3c5	0.33755317
169	0x3ed7d39b	0.4215363
170	0x3c94ae00	0.018149376
171	0x3ed30225	0.41212574
172	0x3ec4739c	0.38369453
173	0xbceaa4ac	-0.028642975
174	0xbc8e1001	-0.017341616
175	0x3ad6c02d	0.0016384177
176	0xbe8fbbe3	-0.28073034
177	0x3de2470b	0.110487066
178	0x3edf0f12	0.43566185
179	0x3f43bd0b	0.7646033
180	0xbe38444a	-0.179948
181	0x3f4c3008	0.7976079
182	0xbe8dec4f	-0.27719352
183	0x3f33ef3e	0.7028693
184	0x3f3b8b36	0.73259294
185	0x3e720a17	0.23636661
186	0x3e210e5c	0.15728134
187	0x3f00d00c	0.50317454
188	0xbed0a4b0	-0.40750647
189	0xbe127fa7	-0.14306508
190	0xbe974774	-0.29546702
191	0xbeb8fa48	-0.3612845
192	0x3ee2878e	0.44244045
193	0xbd023b7a	-0.031795003
194	0xbc255760	-0.010091633
195	0x3f1d4556	0.61433923
196	0xbe11b0be	-0.14227578
197	0x3de2371f	0.1104567
198	0xbe215f2d	-0.15758963
199	0x3d3fbb1c	0.0468093
200	0x3e0e2a28	0.13883269
201	0x3e1a0c49	0.15043749
202	0x3e9cdd07	0.3063738
203	0xbecd41bc	-0.40089214
204	0xbc913fcb	-0.017730614
205	0xbdf13b4f	-0.1177889
206	0x3e7ff62a	0.24996248
207	0xbe6254cd	-0.22102661
208	0xbf42fdc3	-0.7616846
209	0xbea5e49d	-0.3240098
210	0x3df16fea	0.11788924
211	0xbef8e0f9	-0.4860914
212	0x3d154954	0.036446884
213	0xbe994228	-0.29933286
214	0x3e900c95	0.281346
215	0x3e11956e	0.14217159
216	0x3eb7cf51	0.35900357
217	0x3ca8ac8a	0.020590086
218	0xbed90423	-0.4238597
219	0x3e1b87a2	0.15188459
220	0x3ca3f360	0.020013511
221	0x3eb859dc	0.36006057
222	0xbe5dcf6c	-0.21661156
223	0xbe9f4225	-0.31105152
224	0xbf018ae5	-0.5060256
225	0xbed14f6b	-0.40880904
226	0x3e6f0e91	0.233454
227	0x3e024e20	0.12725115
228	0xbe11ef51	-0.14251448
229	0x3e13723a	0.14399043
230	0xbe7ef7d1	-0.24899222
231	0x3de770fa	0.113008454
232	0x3e685531	0.22688748
233	0x3eb4f595	0.35343614
234	0x3d9b3806	0.07579045
235	0x3eabf089	0.3358195
236	0x3e6d544b	0.23176686
237	0x3f0d680e	0.552369
238	0x3e8dfee7	0.27733538
239	0x3ed77470	0.42081022
240	0x3dfad62e	0.12247883
241	0x3db48626	0.08814649
242	0x3d3df09a	0.046372034
243	0xbefe61cb	-0.49683985
244	0x3dc2f9b9	0.09520287
245	0xbebd7bab	-0.37008414
246	0x3ee048e1	0.43805602
247	0x3d80057e	0.062510476
248	0x3ec71525	0.3888332
249	0xbec8eadd	-0.39241686
250	0xbe044fb5	-0.12921031
251	0x3e9ab9ea	0.30219966
252	0xbd9ad84c	-0.075607866
253	0xbf00d417	-0.50323623
254	0xbe74c39b	-0.23902743
255	0xbe9c1234	-0.30482638

l1.bias f4 [8]
0	0x3f58f545	0.8474925
1	0x3f265494	0.64972806
2	0x3f10d3aa	0.56572974
3	0x3f430c00	0.76190186
4	0x3f5b54a6	0.8567604
5	0x3eec23d2	0.4612108
6	0x3f32cb4c	0.69841456
7	0x3f154409	0.5830694

l2.weight f4 [8, 8]
0	0x3f3e2e62	0.74289525
1	0x3e9ca062	0.30591112
2	0x3be5bee8	0.007011283
3	0x3d309974	0.043115094
4	0xbfb61d65	-1.422772
5	0xbebd6645	-0.36992088
6	0x3f53db6f	0.82756704
7	0x3f386ca3	0.72040766
8	0x3f985a8f	1.1902636
9	0xbf56860c	-0.8379829
10	0x3fa498ca	1.2859128
11	0x3f8c1984	1.0945287
12	0xbe6f07c2	-0.23342803
13	0xbf7e7829	-0.994021
14	0x3f8472f2	1.0347579
15	0x3f106585	0.56404907
16	0x3f3dec42	0.74188626
17	0x3f8a67d9	1.0812942
18	0xbe27ab58	-0.16373956
19	0x3d7ed307	0.06221297
20	0x3f5d1374	0.8635781
21	0xbef45d64	-0.477275
22	0xbe816c55	-0.25277963
23	0x3deb3b27	0.11485892
24	0x3f074177	0.52834266
25	0x3e7ed947	0.24887572
26	0x3e409450	0.18806577
27	0xbe7fe661	-0.24990226
28	0xbf9b4bf5	-1.2132555
29	0xbdd0b935	-0.101915754
30	0x3f5de4c5	0.866772
31	0x3efb1cb5	0.4904534
32	0xbf16759e	-0.5877322
33	0x3e39bce7	0.18138467
34	0x3e567fac	0.2094714
35	0x3dea9e2f	0.114559524
36	0x3e0d03b4	0.13770944
37	0x3fd950c6	1.6977775
38	0x3f79035e	0.9727076
39	0x3fbffce4	1.4999051
40	0x3f7d09a9	0.98842865
41	0x3f6f675b	0.9351708
42	0xbc89e199	-0.016831206
43	0x3ec33402	0.38125616
44	0x3e8cc0cc	0.27490842
45	0xbf8be558	-1.0929365
46	0x3d5f234a	0.054477014
47	0xbf611ac2	-0.87931454
48	0x3f062c3d	0.5241125
49	0x3f8cbf5e	1.0995901
50	0xbf66f91a	-0.9022385
51	0xbf5d78a9	-0.8651224
52	0xbe6db6e6	-0.23214301
53	0x3e1e1e74	0.15441304
54	0x3f29279d	0.6607607
55	0x3f4e5268	0.8059449
56	0xbe3ab770	-0.18234038
57	0x3e865ff5	0.26245084
58	0x3d0fa048	0.035064965
59	0xbe702e50	-0.23455167
60	0xbeb37edc	-0.35057724
61	0xbe5f5f32	-0.21813658
62	0x3dec3c31	0.11534918
63	0xbbf2bd70	-0.0074078366

l2.bias f4 [8]
0	0xbeaf0ca0	-0.3418932
1	0x3f364dbf	0.7121238
2	0x3f1fdfed	0.6245106
3	0xbe660e80	-0.22466469
4	0x3ea2a8ff	0.3176956
5	0x3e080122	0.13281682
6	0x3ecf6242	0.40504652
7	0xbeb0f1de	-0.3455953

l3.weight f4 [7, 8]
0	0xbf7b6920	-0.98207283
1	0xbf8bed03	-1.0931705
2	0xbfb5a65f	-1.4191397
3	0xbe6dd687	-0.23226367
4	0x3f86c0e5	1.0527617
5	0xbeadccf8	-0.3394544
6	0xbf8c499e	-1.0959966
7	0x3ea5a7cc	0.3235458
8	0x3f45ba05	0.7723697
9	0xbf4c1475	-0.79718715
10	0xbf521957	-0.82069916
11	0x3f68c506	0.90925634
12	0x3dad31df	0.08456778
13	0xbf2a9cf5	-0.6664575
14	0x3ecb114d	0.39661637
15	0xbe186055	-0.14880498
16	0xbf27c0c7	-0.6552853
17	0x3f13aa55	0.5768178
18	0xbdd32845	-0.10310415
19	0xbfb8d367	-1.4439515
20	0x3ead1437	0.33804485
21	0xbfdde845	-1.7336508
22	0xbf71df59	-0.94481426
23	0x3e838ebd	0.25694838
24	0xbf7f6127	-0.9975762
25	0x3ebe64e8	0.3718636
26	0x3e612214	0.21985656
27	0xbfa6a7d0	-1.3019962
28	0xbf8e1645	-1.1100546
29	0x3f3001be	0.6875266
30	0xbfa972ae	-1.3238122
31	0x3d36b0b1	0.0446021
32	0x3d872637	0.06599086
33	0xbf98c1e5	-1.1934172
34	0x3ed2f31e	0.4120111
35	0xbf0a724d	-0.5408066
36	0xbf53c83b	-0.827274
37	0x3f0d0d29	0.55098206
38	0x3ea721f7	0.326431
39	0xbe80ca3a	-0.25154287
40	0x3f767cff	0.9628448
41	0x3e83c1ec	0.25733888
42	0xbfc14fa2	-1.5102427
43	0x3f0ffa5f	0.5624141
44	0xbe4e1268	-0.20124209
45	0xbdd3e026	-0.10345487
46	0xbf214a62	-0.63004124
47	0x3e20bc41	0.15696813
48	0xbf5d1204	-0.86355615
49	0xbf897380	-1.0738373
50	0x3eaba634	0.3352524
51	0xbf325b60	-0.6967068
52	0x3eb1ed9b	0.3475159
53	0xbf851103	-1.0395817
54	0x3f2c98d5	0.67420703
55	0xbe47e336	-0.19520268

l3.bias f4 [7]
0	0x3e9aa111	0.3020101
1	0xbf243652	-0.64145386
2	0x3d7d7b32	0.061885066
3	0x3f18bcb8	0.5966296
4	0x3dfd6cfa	0.12374301
5	0xbe0eceaf	-0.13946031
6	0xbd4e5b47	-0.050380018
