echatbot/resources/data.pth (torch, 5015 bytes, 6 tensors)

l1.weight f4 [8, 54]
00000000: 98a8 84bd f08c 0abc 66ef 963d 0c90 363d
00000010: c058 3bbb a64e 4cbd 1299 983d e2e2 b63d
00000020: aa50 4ebd 0434 68bd 9a93 b2bd cedc febd
00000030: 50e5 efbd e8c7 b13d 5c19 393d f85e 0b3d
00000040: 605b bc3b c0a8 a2bb 9840 70bc dcde c3bd
00000050: 6c8f 0bbd 0039 89bd 0081 82bd 6205 c5bd
00000060: 3e5e 293d 1c6d 4bbd 378e d2bd b40e 58bd
00000070: 589c 73bc 5ca8 b1bd 169d 063e a2c7 c23d
00000080: f1ba eebd 3061 f9bc c0c3 ed3b fc74 19bd
00000090: b8a5 efbd 9499 e53d 8885 2b3c aa48 763c
000000a0: 38fc b33c 282b af3d a4fb bdbc 98b1 de3c
000000b0: 5af2 4fbd 1023 abbc 4ef6 dcbd ec8e a3bd
000000c0: 53ee 9bbd 92da c7bd 6011 6a3c 203d 7c3c
000000d0: d702 13bd f9af f0bd ad8d 1abe 03b6 f93e
000000e0: 8405 c7bc 4b28 dc3e 0bf0 0e3f ca4a 1fbf
000000f0: 1267 2d3d acd2 f2bc afb7 8dbe e887 163e
00000100: 844b e73e 055e b3be f702 9d3e c1d1 c7be
00000110: 8ee2 613e 5cf4 4ebe 04fe 163f 1949 1fbf
00000120: c3f0 8a3e eb2e 4c3f f495 58bd 2f56 0e3f
00000130: 838d 2e3f 870c df3e 6b3d efbd c261 173f
00000140: f3b6 8b3e ec79 de3e 522a bb3e c59c ae3e
00000150: b7c5 06bf bb4e 5cbe 7697 3fbe 345f 7abe
00000160: d77b c53e dccd 21be b495 b03e c6d3 98be
00000170: 0b56 6b3e 9212 d43d db81 95be c241 863e
00000180: cc56 a1be 109f 7e3e b797 0cbe ba34 8b3e
00000190: 0d1f 9dbe c452 a03d daee 103f a75f 2b3e
000001a0: 57a9 cfbd 5b6a ea3e 3d4b 6b3e b319 493e
000001b0: cbe9 80bd 516a 923e 28ad 4cbd bc9c c73e
000001c0: 16be 1c3f ae50 32bf c1f0 813e 5cef 1f3e
000001d0: bb26 fe3a d4b9 0c3e c089 d33e 5d97 29be
000001e0: b434 2e3f 1c4b 25be 55fa 203e 285a 93be
000001f0: 129c ba3e 3168 32bf 6725 253f fb30 5b3f
00000200: 733e 9bbc d2b1 4e3f 7b0e 633f 839f 8d3e
00000210: 6357 9a3d a445 863e a771 1a3f 4532 e53e
00000220: a4be 983e 92d9 113e 60d1 18bf 4235 30be
00000230: 9e9d 313b 94a1 18bd 79e7 e43e add6 5ebe
00000240: 6217 9f3e ca62 ecbc 8995 8f3e 7299 ee3e
00000250: bfb0 16bf 6833 603f eaad 07be 92c3 9a3e
00000260: 1f3f 42bd d196 c63e 861b b3be da37 03bd
00000270: 7139 e13e 2485 3c3f 6841 58be 283d 053f
00000280: ff1e b93e b8ed 063f ae8e 6fbd 8810 6b3e
00000290: 698c 1a3f b20a aa3e 6c07 0d3f 03de cabd
000002a0: 5af7 073f 47da e53e 85c0 273f 3c62 0f3f
000002b0: 6705 0e3e 898b 023f fe59 d53e 00c3 ea3e
000002c0: 0e2b e83e 9a4b 923e 4521 4d3e 90e9 83bd
000002d0: ccf0 ffbe afc7 3b3e cc6c 89be c878 c13e
000002e0: 4049 b73e f134 e83e c4b0 0a3f 8baf b33e
000002f0: 19e4 c3be 0449 ba3e d2f8 4ebe b7ce 053f
00000300: df09 bebd 4511 0e3f 43f9 adbd 8690 403f
00000310: 2587 f93e 66d1 e93e 74ff b1bc fd21 143f
00000320: 6332 f43e 884d 0a3f dbf1 04bd fc7c 06bf
00000330: a8dc c93e 159c 973e d1e9 293f d781 023f
00000340: 9aeb 34bf 9faa 95be 1055 58bc dc06 1bbf
00000350: 3f92 ed3e 2cb2 b4be e41f 043f e279 923e
00000360: e564 b8be bd9c 053f fad0 0bbf 6c7f d7be
00000370: 0087 23bb 5dcf 543f 2b88 d6bd 75a0 ddbe
00000380: 9f68 a7be 76fb 78be c6bb 81be 639a 70be
00000390: 4712 a93e 2c9a 17be 1894 173f c899 4ebe
000003a0: 5f13 bebe fcc7 5b3f 8f15 c63e 3a9b 1ebf
000003b0: 7905 49bd 83e9 1fbf c7e4 1fbf d6d0 b6bc
000003c0: d850 42be eca7 efbe d717 083f de8c 5c3f
000003d0: 84e2 9d3e 2f32 1f3f 580e 0f3f 122e b9bd
000003e0: 803b 45be 2c64 d6be a422 2a3f b469 26be
000003f0: b8b7 a23e c721 aebe 650e aebd 6265 0fbe
-0.06477469 -0.008456454 0.073698804 0.044570968 -0.0028586835 -0.049879692 0.07451071 0.08929993
-0.050369896 -0.05669023 -0.08719559 -0.12444459 -0.1171366 0.08680707 0.0451902 0.034026116
0.0057481974 -0.004963964 -0.014663838 -0.095639914 -0.034072325 -0.06700325 -0.06372261 -0.09620167
0.041349642 -0.0496646 -0.102810316 -0.052748397 -0.014868818 -0.0867469 0.13145861 0.09510733
-0.1165675 -0.03044185 0.0072560012 -0.03746508 -0.1170153 0.11210933 0.010468848 0.015031973
0.021970853 0.08553153 -0.02319128 0.027184293 -0.050768234 -0.020890743 -0.107891664 -0.079862446
-0.07613816 -0.09758486 0.014286369 0.015395433 -0.03589138 -0.11752314 -0.15093108 0.48771676
-0.024294622 0.4299949 0.55835027 -0.62223494 0.042334624 -0.029641472 -0.27679202 0.14700282
0.451748 -0.3503267 0.30666324 -0.39027217 0.2205908 -0.20210403 0.5898135 -0.62220913
0.27136812 0.7975909 -0.05287738 0.55600256 0.6818468 0.43564245 -0.116816364 0.5913354
0.27288017 0.43452394 0.36555725 0.3410398 -0.5264544 -0.21514408 -0.18710122 -0.2445038
0.38571045 -0.15801185 0.34489214 -0.2984907 0.22982042 0.103551045 -0.29200634 0.26222044
-0.31511533 0.24865365 -0.1372975 0.27188665 -0.30687752 0.07828286 0.5661446 0.16735707
-0.10139721 0.45784268 0.2297792 0.1963871 -0.062945925 0.28596738 -0.049969822 0.38986766
0.6122755 -0.6965436 0.25378993 0.15618652 0.0019390205 0.13742763 0.41316032 -0.16561647
0.6804917 -0.16141933 0.15720494 -0.2877972 0.36447197 -0.69690233 0.64510196 0.85621613
-0.018950677 0.8074008 0.8869397 0.2766076 0.07536199 0.26225007 0.6032967 0.44764915
0.29832947 0.14243153 -0.5969448 -0.17207816 0.0027102004 -0.037263468 0.4470785 -0.2176158
0.31072527 -0.0288557 0.28043774 0.46601444 -0.58863443 0.8757844 -0.13249937 0.30227333
-0.04742348 0.3878694 -0.34981936 -0.032035686 0.43989137 0.73640656 -0.211187 0.5204644
0.3615646 0.5270648 -0.05848568 0.22955525 0.603705 0.33211285 0.5508945 -0.099056266
0.53111804 0.44893095 0.65528136 0.5600927 0.13869248 0.50994164 0.4167022 0.45851898
0.45345348 0.28573304 0.20032223 -0.06441033 -0.499884 0.18337892 -0.26840818 0.3778746
0.35798073 0.4535289 0.5417597 0.35094866 -0.38259962 0.36383832 -0.20212105 0.52268547
-0.092792265 0.554951 -0.084948085 0.75220525 0.4873592 0.4566757 -0.021728255 0.5786436
0.47694692 0.54024553 -0.032457214 -0.5253446 0.3942616 0.2961127 0.663724 0.5097937
-0.70672 -0.29231736 -0.013203874 -0.6055734 0.4640064 -0.35292184 0.5161116 0.28608614
-0.36014476 0.5219229 -0.5461575 -0.42089403 -0.0024952292 0.8312891 -0.10475191 -0.43286481
-0.32697007 -0.24314675 -0.25338572 -0.23496394 0.33021757 -0.14804906 0.5921035 -0.2017585
-0.37124154 0.85852027 0.38688323 -0.61955607 -0.049077485 -0.62465686 -0.6245846 -0.022316378
-0.18976152 -0.46807802 0.53161377 0.86152446 0.3083688 0.6218595 0.5588126 -0.0904199
-0.19260979 -0.418733 0.6645911 -0.1625126 0.3178079 -0.34010145 -0.08498839 -0.14003518

l1.bias f4 [8]
00000000: b9d6 02be 9b4d 1f3f 8f4e 323f 2286 1e3f
00000010: a8ef 1f3f 3c64 1a3f ed72 6f3f d0f4 6f3f
-0.12777223 0.6222779 0.6965112 0.6192342 0.6247506 0.60309196 0.9353474 0.9373293

l2.weight f4 [8, 8]
00000000: b588 c23c a138 e63e 9271 4d3f f014 a23f
00000010: dbd3 acbf 61fb 0bbf 26de f23d dc5f ba3f
00000020: e686 b73c 1dc8 6f3f e2f2 5d3e 081c 4c3e
00000030: eb4e be3e bc11 d0be 5399 583f bf70 3bbf
00000040: 8c1d 623e b21e b3be 2ba1 4b3e 64a4 48bd
00000050: ad5e 48be d5ee 9abe b2c3 893e 0c33 eabd
00000060: 4af9 5cbe 6d4f b7bf c8f5 6dbf eece 6cbe
00000070: d5e2 7b3f 13e9 ad3f e7eb a43f c301 8e3f
00000080: f07a a13e fa92 2b3f 78bf 383f 4d33 603f
00000090: 60ba 8e3e 984b 6abf a42a b0bf b7a3 65bd
000000a0: da5a e1bd 3e35 913e ba14 3a3f 90b6 123e
000000b0: a44e c33f 631d 233f e7ab 573e 9ac5 56bf
000000c0: 8a9b ad3e 0a10 393f fed9 713f 7fd0 7bbf
000000d0: e7d8 adbe 55d0 173f 9ee1 923f adf4 56bc
000000e0: b32b 1bbe 1874 e93d 4814 803d 5423 36be
000000f0: cc51 8cbe e72f 18be 9086 b7bd dfb3 00be
0.023746828 0.4496508 0.8025142 1.266264 -1.3502153 -0.5468045 0.11858778 1.4560504
0.022403192 0.93664724 0.21674684 0.19932568 0.37169585 -0.4063853 0.84608954 -0.7321891
0.22081584 -0.34984356 0.198857 -0.0489849 -0.19567366 -0.3026034 0.26907116 -0.11435518
-0.21579471 -1.4321114 -0.9295316 -0.23125812 0.98392993 1.3586754 1.2884492 1.1094288
0.31539106 0.67021143 0.7216716 0.8757828 0.27876568 -0.91521597 -1.3763013 -0.056064334
-0.11003657 0.28360933 0.72687876 0.14327455 1.5258374 0.63716716 0.2106167 -0.83895266
0.3390773 0.722901 0.94473255 -0.98365015 -0.33954546 0.59302264 1.1475103 -0.013119859
-0.15153389 0.11399096 0.06253868 -0.17786914 -0.27406156 -0.14862023 -0.08961213 -0.12568615

l2.bias f4 [8]
00000000: 84ff 353f ae8b 1e3e 5db0 3ebd 67c5 143f
00000010: 30c3 083d 2ae8 0f3e e43b cd3e 38a5 bdbd
0.7109301 0.15482971 -0.046554912 0.5811371 0.03338927 0.14053407 0.40084755 -0.092600286

l3.weight f4 [7, 8]
00000000: 5aa0 223f 0631 8cbf 8605 d63d d1ea 9b3e
00000010: e867 87bf 89fc 30bf 19cd b9bf 1f81 a03e
00000020: 2c77 34bf 5855 d13e a94c 8abd 879e 47bf
00000030: 667a 363f 8706 0a3f 227d 3abf a404 3fbe
00000040: 7811 d0bf a51f 1dbf e0b5 8a3e ef2f 673f
00000050: b7c7 1bbf b51e 113f 0061 33be 6a98 1f3e
00000060: 4cd1 aa3e ef9b 053f b209 74be 991c 77bf
00000070: 1573 89be e751 c0be 3bbb e63e b67c 4e3e
00000080: 4e64 85bf 7425 5bbd 261e 3dbe e179 98be
00000090: beb5 85bf 7146 523f 3802 013f 6f9e 823e
000000a0: 7f8e 3f3f 6f00 83bf 714a b7bd 9dea 8cbf
000000b0: f413 163f c302 b0bf 64af 94bf 57c1 b03e
000000c0: 55e7 9abe 9ef0 bdbf 4a3b 0f3e 1c04 2a3f
000000d0: fd7c 39bf 6b15 bcbf c26c 3b3f 8de1 b23e
0.6352593 -1.0952461 0.10450272 0.30452588 -1.0578585 -0.6913534 -1.4515716 0.31348512
-0.7049434 0.40885425 -0.06752903 -0.7797627 0.71280515 0.5391621 -0.7284719 -0.18654114
-1.6255331 -0.6137641 0.27091885 0.90307516 -0.60851616 0.5668748 -0.17517471 0.15585485
0.33362806 0.5219106 -0.23831823 -0.9652801 -0.26845613 -0.37562487 0.4506472 0.20164761
-1.0421236 -0.053502515 -0.18468532 -0.29780486 -1.0446088 0.82138735 0.5039401 0.255115
0.74826807 -1.0234507 -0.089497454 -1.1009098 0.58624196 -1.3750843 -1.1616025 0.34522507
-0.30254617 -1.4839056 0.1398746 0.6641252 -0.7245634 -1.4694036 0.73212826 0.34937707

l3.bias f4 [7]
00000000: 26b4 dbbd 7ddf 24be 2ee3 163b b7ac b43e
00000010: 5afe e3be 3593 973c 25ef 4dbd
-0.1072772 -0.16100879 0.0023023593 0.3528802 -0.44529992 0.018502811 -0.050276894
